…
     "output_type": "stream",
     "text": [
      "number of train examples : 177\n",
      "(256, 512, 3)\n",
      "✅\n",
      "✅\n",
      "✅\n",
      "Model: \"model\"\n",
      "_________________________________________________________________\n",
      "Layer (type)                 Output Shape              Param #   \n",
      "=================================================================\n",
      "input_1 (InputLayer)         [(None, 256, 256, 3)]     0         \n",
      "_________________________________________________________________\n",
      "encode_block (EncodeBlock)   (None, 128, 128, 64)      3072      \n",
      "_________________________________________________________________\n",
      "encode_block_1 (EncodeBlock) (None, 64, 64, 128)       131584    \n",
      "_________________________________________________________________\n",
      "encode_block_2 (EncodeBlock) (None, 32, 32, 256)       525312    \n",
      "_________________________________________________________________\n",
      "encode_block_3 (EncodeBlock) (None, 16, 16, 512)       2099200   \n",
      "_________________________________________________________________\n",
      "encode_block_4 (EncodeBlock) (None, 8, 8, 512)         4196352   \n",
      "_________________________________________________________________\n",
      "encode_block_5 (EncodeBlock) (None, 4, 4, 512)         4196352   \n",
      "_________________________________________________________________\n",
      "encode_block_6 (EncodeBlock) (None, 2, 2, 512)         4196352   \n",
      "_________________________________________________________________\n",
      "encode_block_7 (EncodeBlock) (None, 1, 1, 512)         4196352   \n",
      "=================================================================\n",
      "Total params: 19,544,576\n",
      "Trainable params: 19,538,688\n",
      "Non-trainable params: 5,888\n",
      "_________________________________________________________________\n",
      "✅\n",
      "Model: \"model_1\"\n",
      "_________________________________________________________________\n",
      "Layer (type)                 Output Shape              Param #   \n",
      "=================================================================\n",
      "input_2 (InputLayer)         [(None, 1, 1, 512)]       0         \n",
      "_________________________________________________________________\n",
      "decode_block (DecodeBlock)   (None, 2, 2, 512)         4196352   \n",
      "_________________________________________________________________\n",
      "decode_block_1 (DecodeBlock) (None, 4, 4, 512)         4196352   \n",
      "_________________________________________________________________\n",
      "decode_block_2 (DecodeBlock) (None, 8, 8, 512)         4196352   \n",
      "_________________________________________________________________\n",
      "decode_block_3 (DecodeBlock) (None, 16, 16, 512)       4196352   \n",
      "_________________________________________________________________\n",
      "decode_block_4 (DecodeBlock) (None, 32, 32, 256)       2098176   \n",
      "_________________________________________________________________\n",
      "decode_block_5 (DecodeBlock) (None, 64, 64, 128)       524800    \n",
      "_________________________________________________________________\n",
      "decode_block_6 (DecodeBlock) (None, 128, 128, 64)      131328    \n",
      "_________________________________________________________________\n",
      "conv2d_transpose_7 (Conv2DTr (None, 256, 256, 3)       3072      \n",
      "=================================================================\n",
      "Total params: 19,542,784\n",
      "Trainable params: 19,537,792\n",
      "Non-trainable params: 4,992\n",
      "_________________________________________________________________\n",
      "Model: \"model_2\"\n",
      "_________________________________________________________________\n",
      "Layer (type)                 Output Shape              Param #   \n",
      "=================================================================\n",
      "input_3 (InputLayer)         [(None, 256, 256, 3)]     0         \n",
      "_________________________________________________________________\n",
      "encoder_1 (Encoder)          (None, 1, 1, 512)         19544576  \n",
      "_________________________________________________________________\n",
      "decoder_1 (Decoder)          (None, 256, 256, 3)       19542784  \n",
      "=================================================================\n",
      "Total params: 39,087,360\n",
      "Trainable params: 39,076,480\n",
      "Non-trainable params: 10,880\n",
      "_________________________________________________________________\n",
      "✅\n",
      "✅\n",
      "Model: \"model_3\"\n",
      "__________________________________________________________________________________________________\n",
      "Layer (type)                    Output Shape         Param #     Connected to                     \n",
      "==================================================================================================\n",
      "input_4 (InputLayer)            [(None, 256, 256, 3) 0                                            \n",
      "__________________________________________________________________________________________________\n",
      "encode_block_16 (EncodeBlock)   (None, 128, 128, 64) 3072        input_4[0][0]                    \n",
      "__________________________________________________________________________________________________\n",
      "encode_block_17 (EncodeBlock)   (None, 64, 64, 128)  131584      encode_block_16[0][0]            \n",
      "__________________________________________________________________________________________________\n",
      "encode_block_18 (EncodeBlock)   (None, 32, 32, 256)  525312      encode_block_17[0][0]            \n",
      "__________________________________________________________________________________________________\n",
      "encode_block_19 (EncodeBlock)   (None, 16, 16, 512)  2099200     encode_block_18[0][0]            \n",
      "__________________________________________________________________________________________________\n",
      "encode_block_20 (EncodeBlock)   (None, 8, 8, 512)    4196352     encode_block_19[0][0]            \n",
      "__________________________________________________________________________________________________\n",
      "encode_block_21 (EncodeBlock)   (None, 4, 4, 512)    4196352     encode_block_20[0][0]            \n",
      "__________________________________________________________________________________________________\n",
      "encode_block_22 (EncodeBlock)   (None, 2, 2, 512)    4196352     encode_block_21[0][0]            \n",
      "__________________________________________________________________________________________________\n",
      "encode_block_23 (EncodeBlock)   (None, 1, 1, 512)    4196352     encode_block_22[0][0]            \n",
      "__________________________________________________________________________________________________\n",
      "decode_block_14 (DecodeBlock)   (None, 2, 2, 512)    4196352     encode_block_23[0][0]            \n",
      "__________________________________________________________________________________________________\n",
      "concatenate (Concatenate)       (None, 2, 2, 1024)   0           decode_block_14[0][0]            \n",
      "                                                                 encode_block_22[0][0]            \n",
      "__________________________________________________________________________________________________\n",
      "decode_block_15 (DecodeBlock)   (None, 4, 4, 512)    8390656     concatenate[0][0]                \n",
      "__________________________________________________________________________________________________\n",
      "concatenate_1 (Concatenate)     (None, 4, 4, 1024)   0           decode_block_15[0][0]            \n",
      "                                                                 encode_block_21[0][0]            \n",
      "__________________________________________________________________________________________________\n",
      "decode_block_16 (DecodeBlock)   (None, 8, 8, 512)    8390656     concatenate_1[0][0]              \n",
      "__________________________________________________________________________________________________\n",
      "concatenate_2 (Concatenate)     (None, 8, 8, 1024)   0           decode_block_16[0][0]            \n",
      "                                                                 encode_block_20[0][0]            \n",
      "__________________________________________________________________________________________________\n",
      "decode_block_17 (DecodeBlock)   (None, 16, 16, 512)  8390656     concatenate_2[0][0]              \n",
      "__________________________________________________________________________________________________\n",
      "concatenate_3 (Concatenate)     (None, 16, 16, 1024) 0           decode_block_17[0][0]            \n",
      "                                                                 encode_block_19[0][0]            \n",
      "__________________________________________________________________________________________________\n",
      "decode_block_18 (DecodeBlock)   (None, 32, 32, 256)  4195328     concatenate_3[0][0]              \n",
      "__________________________________________________________________________________________________\n",
      "concatenate_4 (Concatenate)     (None, 32, 32, 512)  0           decode_block_18[0][0]            \n",
      "                                                                 encode_block_18[0][0]            \n",
      "__________________________________________________________________________________________________\n",
      "decode_block_19 (DecodeBlock)   (None, 64, 64, 128)  1049088     concatenate_4[0][0]              \n",
      "__________________________________________________________________________________________________\n",
      "concatenate_5 (Concatenate)     (None, 64, 64, 256)  0           decode_block_19[0][0]            \n",
      "                                                                 encode_block_17[0][0]            \n",
      "__________________________________________________________________________________________________\n",
      "decode_block_20 (DecodeBlock)   (None, 128, 128, 64) 262400      concatenate_5[0][0]              \n",
      "__________________________________________________________________________________________________\n",
      "concatenate_6 (Concatenate)     (None, 128, 128, 128 0           decode_block_20[0][0]            \n",
      "                                                                 encode_block_16[0][0]            \n",
      "__________________________________________________________________________________________________\n",
      "conv2d_transpose_23 (Conv2DTran (None, 256, 256, 3)  6144        concatenate_6[0][0]              \n",
      "==================================================================================================\n",
      "Total params: 54,425,856\n",
      "Trainable params: 54,414,976\n",
      "Non-trainable params: 10,880\n",
      "__________________________________________________________________________________________________\n",
      "✅\n",
      "Model: \"model_4\"\n",
      "_________________________________________________________________\n",
      "Layer (type)                 Output Shape              Param #   \n",
      "=================================================================\n",
      "input_5 (InputLayer)         [(None, 128, 128, 32)]    0         \n",
      "_________________________________________________________________\n",
      "zero_padding2d (ZeroPadding2 (None, 130, 130, 32)      0         \n",
      "_________________________________________________________________\n",
      "conv2d_24 (Conv2D)           (None, 127, 127, 64)      32768     \n",
      "_________________________________________________________________\n",
      "batch_normalization_45 (Batc (None, 127, 127, 64)      256       \n",
      "_________________________________________________________________\n",
      "leaky_re_lu_24 (LeakyReLU)   (None, 127, 127, 64)      0         \n",
      "=================================================================\n",
      "Total params: 33,024\n",
      "Trainable params: 32,896\n",
      "Non-trainable params: 128\n",
      "_________________________________________________________________\n",
      "✅\n",
      "Model: \"model_5\"\n",
      "__________________________________________________________________________________________________\n",
      "Layer (type)                    Output Shape         Param #     Connected to                     \n",
      "==================================================================================================\n",
      "input_6 (InputLayer)            [(None, 256, 256, 3) 0                                            \n",
      "__________________________________________________________________________________________________\n",
      "input_7 (InputLayer)            [(None, 256, 256, 3) 0                                            \n",
      "__________________________________________________________________________________________________\n",
      "concatenate_7 (Concatenate)     (None, 256, 256, 6)  0           input_6[0][0]                    \n",
      "                                                                 input_7[0][0]                    \n",
      "__________________________________________________________________________________________________\n",
      "disc_block (DiscBlock)          (None, 128, 128, 64) 6144        concatenate_7[0][0]              \n",
      "__________________________________________________________________________________________________\n",
      "disc_block_1 (DiscBlock)        (None, 64, 64, 128)  131584      disc_block[0][0]                 \n",
      "__________________________________________________________________________________________________\n",
      "disc_block_2 (DiscBlock)        (None, 32, 32, 256)  525312      disc_block_1[0][0]               \n",
      "__________________________________________________________________________________________________\n",
      "disc_block_3 (DiscBlock)        (None, 31, 31, 512)  2099200     disc_block_2[0][0]               \n",
      "__________________________________________________________________________________________________\n",
      "disc_block_4 (DiscBlock)        (None, 30, 30, 1)    8192        disc_block_3[0][0]               \n",
      "__________________________________________________________________________________________________\n",
      "activation (Activation)         (None, 30, 30, 1)    0           disc_block_4[0][0]               \n",
      "==================================================================================================\n",
      "Total params: 2,770,432\n",
      "Trainable params: 2,768,640\n",
      "Non-trainable params: 1,792\n",
      "__________________________________________________________________________________________________\n"
     ]
    },
    {
…
